logs/best_model.pt (torch, 397416 bytes, 3 tensors)

fc1.weight f4 [256, 384]
000000 53 87 bb 3c f0 84 cf bd 12 83 95 bd e6 aa 6e 3d
       0.022891676 -0.10132778 -0.0730039 0.05826845
000010 93 39 66 bb d7 19 b1 bd 33 f9 0e 3d da 81 47 bc
       -0.0035129532 -0.08647507 0.034905624 -0.012176955
000020 39 94 e5 3d cf 08 9c 3c c7 84 39 bc d2 b5 38 bd
       0.11209912 0.019047169 -0.0113231605 -0.045095272
000030 e9 a7 e0 3d 45 8c 6b bb 52 36 9c 3d 13 52 60 3d
       0.10969526 -0.0035941761 0.07627548 0.054765772
000040 a3 33 13 3e 84 4d 76 bd 1b 2d b7 bc c7 b0 a0 bc
       0.14375167 -0.06013252 -0.022360375 -0.019615544
000050 f2 27 15 bd 4c 4e 48 bd e7 84 83 bd 05 1a ad 3b
       -0.036415048 -0.048902795 -0.064218335 0.005282643
000060 bf 3e d3 3d 41 c7 6e bc 81 d0 9d bb 1b 4d 82 3c
       0.10314702 -0.014573873 -0.0048161154 0.015905907
000070 3b 14 a0 bb b4 0a 2c bd cd ea f6 3d 47 79 7f 3d
       -0.004885224 -0.042002395 0.120565034 0.06237152
000080 b1 08 d9 bc f8 22 ac bd f9 01 98 3d 8b bf de bc
       -0.026493402 -0.08405107 0.07422251 -0.027190944
000090 e9 8e fa bc 8b 1c 92 3d 58 92 e2 bc 77 03 b9 3d
       -0.030585723 0.071343504 -0.027657673 0.09033864
0000a0 a8 51 65 3d 62 20 55 bd 46 8e e9 3d a9 40 f8 3c
       0.055986077 -0.052032836 0.1140409 0.03030427
0000b0 a5 be dc bd 58 fb 98 bd 6a d2 83 3b f1 dc d8 bd
       -0.1077855 -0.07469815 0.004022886 -0.10589016
0000c0 d4 1e a8 3d 2a ca a9 3c 0c 63 b5 3b de 39 17 3d
       0.08209005 0.020726282 0.005535489 0.03692042
0000d0 3b b1 7e bd d6 cb 2d bd 35 9c 1e bb 79 55 2a bd
       -0.06218074 -0.04243072 -0.0024201993 -0.04158542
0000e0 93 1c 37 bd 89 a8 c6 3d a9 12 83 3c ec 0c be 3b
       -0.044704985 0.09700114 0.016000109 0.0057998803
0000f0 f0 b5 ab 3d af 54 64 3c 56 c7 a5 3d 4b 4c 9d 3d
       0.08384311 0.013936206 0.08094661 0.07680567
000100 ae 64 6c bd ca 69 ca 3d 63 70 95 3d 5a ed 50 3c
       -0.057713203 0.09883459 0.07296827 0.0127519015
000110 f2 cb 10 be 63 5f 6a bd 5b 1f 95 bd b9 d9 83 bb
       -0.14140299 -0.057219874 -0.07281371 -0.0040237573
000120 b8 54 e6 bd fd 00 ef 3c ee 5d 91 3c 4b 57 4a 3c
       -0.112466276 0.029175276 0.017744984 0.012349914
000130 28 1c 7c 3d 49 e2 08 3d 48 1f bb bd b0 c9 3a bd
       0.06155029 0.033418927 -0.09136826 -0.0456025
000140 80 0d c5 3d 2d 76 9e bc 0b 9b ae 3d 2a f8 b5 3c
       0.096217155 -0.01934346 0.08525666 0.02221306
000150 b0 34 55 3d 97 81 72 bd 43 c4 d1 3c c6 90 4b bc
       0.0520522 -0.059205618 0.02560628 -0.012424653
000160 d4 f1 0e bd 21 e1 c2 3d 34 37 6f 3d 58 aa b6 bc
       -0.034898594 0.09515596 0.058402255 -0.022298023
000170 dd 16 75 3c 0e 3b f1 3d ca 0d 82 bd 42 49 ef 3c
       0.014959064 0.11778842 -0.06350286 0.029209737
000180 01 00 22 bc af 02 8d bd 42 b5 92 bc c0 f0 25 bb
       -0.009887696 -0.068852775 -0.017908696 -0.00253205
000190 8f a9 fb bb 48 68 0b bd 55 56 da 3d 3d 06 d3 bc
       -0.007680125 -0.034034997 0.10660998 -0.02575981
0001a0 38 2e 2f bd bc f1 fb 3d 7e 8a 92 3c 80 23 f9 bd
       -0.042768687 0.123019665 0.017888304 -0.12164974
0001b0 7c 12 94 bd 5b 39 31 bc 65 ff 26 3e 9d 87 03 3e
       -0.07230088 -0.010816897 0.16308363 0.12844701
0001c0 f8 a6 29 3c 1e 49 de 3b e1 a2 a6 3d 0e 16 2c 3d
       0.01035475 0.0067836186 0.081365354 0.04201322
0001d0 b3 7a b4 3b d9 72 db bc f0 bc 0a bc de 23 6c bd
       0.005507791 -0.026788162 -0.008467898 -0.057651393
0001e0 87 53 0e 3d b4 f2 87 3c 8e ba c0 bb 5d cb 3a bc
       0.034747627 0.016595222 -0.005881614 -0.011401025
0001f0 de 9b 28 3d 12 5e 02 bd f4 45 cc bd b1 d6 4f 3d
       0.04116427 -0.031827994 -0.0997428 0.050741855
000200 11 74 9b bd 15 09 24 bd 3b 35 f7 bd 6f 1c e7 3d
       -0.07590497 -0.040047724 -0.120707 0.1128472
000210 74 40 43 3d b8 68 1b bd 60 27 e6 bd fc d6 08 3d
       0.04766889 -0.037941664 -0.11237979 0.03340815
000220 63 6a cf 3d 90 3b 51 3c d1 85 05 bd a8 82 3f 3c
       0.101277135 0.012770548 -0.03259832 0.011688866
000230 57 66 90 bd 40 d5 51 3d 90 6a c3 bd cd a0 8f bd
       -0.0705077 0.05122876 -0.095418096 -0.07013092
000240 e1 1e f7 bc cf 23 5b b9 93 a8 81 bc 24 3c 29 3d
       -0.030166091 -0.00020898807 -0.015827453 0.04131712
000250 1d b5 13 3c 18 af 1a 3c ad 92 c1 bb c3 5e 43 bd
       0.009015349 0.00944116 -0.0059073777 -0.047697794
000260 1e 75 c2 3c 62 e7 9a bd 7b be 16 3d 7e 39 42 bd
       0.023737486 -0.07563664 0.03680275 -0.04741811
000270 5c a9 55 bd 0b b3 88 3d f6 f0 21 bd e1 fa 2b 3d
       -0.052163467 0.06674775 -0.03953644 0.041987304
000280 59 fc c8 bd 0b 9d d9 ba d6 cf a6 3c 1e 29 c8 bd
       -0.098137565 -0.0016602589 0.020362776 -0.097734675
000290 8b e8 88 bd 30 92 fd ba 77 21 11 bd bb b5 35 bd
       -0.06684979 -0.0019345935 -0.035432305 -0.044362765
0002a0 68 87 df bb 74 79 da bc 19 b2 fb bc 83 c6 a3 bd
       -0.0068215616 -0.026669241 -0.030724572 -0.079968475
0002b0 5b e8 bf bc 90 97 1e bd 4d 0b f0 bc 1e fe ce bd
       -0.023426225 -0.03871876 -0.029302264 -0.10107063
0002c0 3c fa 31 bb 08 ea 33 bd 65 59 ea 3d ef 9a 24 3d
       -0.0027157208 -0.04392436 0.11442832 0.04018682
0002d0 87 f2 37 3d 38 d0 96 bd a9 7c 8d 3b c9 28 0b 3e
       0.044909026 -0.07363933 0.004317839 0.13589777
0002e0 41 d0 b2 3d 37 b6 4f 3d ee 38 a4 3d 40 6a 8c 3d
       0.087311275 0.050710883 0.08018671 0.06856203
0002f0 7d 16 cc bb af cc b4 bd 33 70 14 bd e5 3d e1 bc
       -0.0062282667 -0.08828103 -0.036239814 -0.027495334
000300 e7 35 82 3d 73 ea 90 b9 eb 00 00 bd aa 07 f1 bc
       0.06357937 -0.000276405 -0.031250875 -0.0294226
000310 43 5f 23 3d 8d 26 9e bd 43 d7 02 3e 22 56 83 bd
       0.03988577 -0.07722197 0.12777428 -0.06412913
000320 f9 4d 5b 3d da 03 26 3d 98 64 3d bc 69 8a 16 3d
       0.053541157 0.040531017 -0.011559628 0.036753092
000330 50 72 71 bd 59 39 86 3b 94 9f c3 bd 13 b7 66 3b
       -0.058946908 0.004096192 -0.095519215 0.0035204336
000340 d3 b3 03 bd 72 36 d6 b6 1c a3 9a 3d af f9 01 3c
       -0.032153916 -6.3840353e-06 0.07550642 0.007933064
000350 c5 a5 1a bd d1 30 fe bc a9 5b 2b bd 9d fc 0f bd
       -0.037755746 -0.031029137 -0.04183546 -0.03515302
000360 a2 d5 ee 3c 41 a3 00 bd 65 2d ce 3c a5 b6 8c bc
       0.029154602 -0.03140569 0.02516813 -0.017176935
000370 7b 0c b7 3c 8e fc 84 bd a0 bc ff bc bf 7e 5b ba
       0.022344818 -0.064934835 -0.031217873 -0.00083730737
000380 5b 36 cc bc 4e 00 b8 bd 0f 10 01 3e e7 4f 71 3d
       -0.024928262 -0.08984433 0.12603782 0.05891409
000390 10 d4 d2 3d a5 2c 3f 3d 70 b6 be bd 06 2e 18 3d
       0.10294354 0.046673436 -0.09312141 0.037153266
0003a0 d9 8d 49 bd ce 61 03 be fa 2b cd 3c 60 ba ee bc
       -0.049207542 -0.12830278 0.025045384 -0.029141605
0003b0 2d d8 a2 bc fc 05 df bd 90 6a 86 3b 30 f4 d0 3c
       -0.019878471 -0.10889813 0.0041020587 0.025507063
0003c0 25 96 da bb 07 dd 18 3d 2b eb bc bd e4 b6 9f 3d
       -0.0066707307 0.037320163 -0.09224542 0.077985555
0003d0 e9 6f 42 3d 43 0e 64 3b 3b 26 00 bd 3b 3c 49 bd
       0.047470007 0.003479854 -0.03128646 -0.049129706
0003e0 29 33 2b 3c 2a 12 a8 3d e0 ea ff 3d 16 86 a1 3c
       0.010449209 0.082065895 0.12495971 0.019717257
0003f0 61 4c 01 be bd 82 7b bd 7a 16 9a bd ad f1 60 bc
       -0.12626792 -0.06140398 -0.07523818 -0.013729495

fc1.bias f4 [256]
000000 a4 67 2e 3d 9e 37 46 bc 5e d5 fb bb 37 48 8d bc
       0.04257931 -0.012098221 -0.0076853475 -0.017246349
000010 fa 42 d8 bc 24 1a 9f bc f3 f4 27 3d 2f ca c4 bb
       -0.026399124 -0.019421645 0.041005086 -0.0060055475
000020 0a ff 02 bd 1d 07 71 bd a1 d9 5a bb 3a a3 2b 3d
       -0.031981505 -0.058844674 -0.0033393877 0.04190371
000030 ee ce f9 3a 78 7a e7 bc ae aa 32 3d 73 4d cb bd
       0.0019058862 -0.02825664 0.043619804 -0.09926882
000040 ce 8a fe b9 d9 4f b2 bd 36 73 0b bd d3 e0 8a bc
       -0.00048550073 -0.08706636 -0.03404542 -0.016952908
000050 e4 6f fd bc 94 4c c4 bd 17 10 ca bc f5 08 a9 bd
       -0.030937143 -0.095849186 -0.024665875 -0.082536615
000060 bf 2d 9c bd 2a d3 76 bb 81 20 74 bd f2 47 74 bd
       -0.07625913 -0.0037662485 -0.05960131 -0.059638925
000070 49 42 d1 bc 23 76 b9 bd 15 34 19 bd 3b 13 b9 bd
       -0.025544303 -0.09055736 -0.037403185 -0.09036871
000080 77 60 a1 bd 9f 01 ae bd bd 28 a4 bd ac 4c c3 bd
       -0.07879727 -0.08496403 -0.08015583 -0.095361084
000090 8c cd aa bd 5d 6f 33 bd 6b 3c b5 bc 87 63 cb bc
       -0.08339986 -0.043807376 -0.022123536 -0.024827732
0000a0 30 bd 41 3d ae cb 39 3d 3a 3e 20 bd f0 63 0b bd
       0.047299564 0.04536026 -0.039121844 -0.034030855
0000b0 9c ca 0c bd 6b 47 30 bd bd e9 85 bd d4 bd 48 bd
       -0.03437291 -0.04303686 -0.06538723 -0.04900916
0000c0 17 2e 25 bd f9 06 cd 3c 17 b0 01 3d e5 24 18 bd
       -0.040327158 0.025027739 0.031662073 -0.03714456
0000d0 25 04 d9 bc c5 42 bc 3c 72 b6 1e bb 61 f1 b6 bd
       -0.026491234 0.022981057 -0.0024217633 -0.08932758
0000e0 95 b8 c0 bd cb 44 d5 bb dd 77 8c 3c dd 1a 0a 3d
       -0.09410206 -0.006508445 0.017146999 0.033717025
0000f0 79 45 40 3b ef f7 81 bd 34 39 56 bd 9b ac 97 bd
       0.0029338284 -0.06346118 -0.052300647 -0.07405969
000100 47 e6 09 bd 59 fe 57 bd cc 33 4d bd 97 29 44 bd
       -0.033666875 -0.0527328 -0.050098225 -0.047891226
000110 34 8b 9f bd 1c 65 26 3d 95 ee fc 3c d7 48 4e bc
       -0.07790223 0.04062377 0.030875484 -0.012590609
000120 6c bc d0 3c 46 ac 41 3d 1f a1 2f bd dc cf 44 bc
       0.025480472 0.047283433 -0.042878266 -0.012012448
000130 b6 66 0f 3d 7d 9d 90 bd 17 85 1d bc 9a dd a7 bd
       0.035010062 -0.070612885 -0.009614251 -0.08196564
000140 b2 58 bb bd 69 65 66 3d 39 21 b8 bd 91 87 ff 3c
       -0.09147777 0.056249056 -0.08990712 0.031192573
000150 fc 8f 8a bd 79 97 4c bd 7e 28 35 bd 95 c4 40 3d
       -0.06765744 -0.049949143 -0.04422807 0.047062475
000160 5f 14 4a bd e2 11 92 3c c8 85 3c bd 81 4f 0a 3d
       -0.049335834 0.017830793 -0.04602602 0.033767227
000170 f1 9d b6 bd 2d f7 ff bc 16 fe cb bb 5e f3 b6 3b
       -0.08916844 -0.031245792 -0.0062253578 0.005583211
000180 96 55 f2 bc 83 35 db 3a 45 13 00 3d ef c2 bd bc
       -0.029581826 0.0016724322 0.031268377 -0.02316424
000190 8c 59 e4 bc 17 3d 78 b8 ac 38 31 bd fd b0 2e bd
       -0.02787473 -5.9184702e-05 -0.043266937 -0.042649258
0001a0 6d bf 3c bd 67 07 68 bd c3 40 ef bb 1b e1 45 3a
       -0.046080995 -0.056647684 -0.0073014214 0.0007548497
0001b0 c9 c9 41 bd 3f fd a8 bc d8 2e 3c bd b6 9b 5b 3c
       -0.047311578 -0.02062857 -0.04594311 0.013403824
0001c0 a9 15 65 bd a5 79 15 bd b6 74 c0 bc 0e 2f 37 bd
       -0.05592886 -0.036492962 -0.023493152 -0.04472261
0001d0 cf 13 1c bd f3 f5 1c bd 96 7d c9 3c 25 84 3f bd
       -0.03810483 -0.038320493 0.024596017 -0.046756882
0001e0 fb 57 a4 bd 0b 72 d1 3c c4 bf 96 bc 24 69 c6 bd
       -0.080245934 0.025567075 -0.018401988 -0.09688023
0001f0 5b 1c fc bc 49 e9 93 3b 80 b3 26 3d 86 a4 6f bd
       -0.03077524 0.0045138937 0.04069853 -0.05850651
000200 b8 0b 0c bb 07 36 78 bd 61 20 a6 bd 53 b0 01 bd
       -0.002136929 -0.0605984 -0.081116445 -0.031662297
000210 4e 24 1e bd 86 13 b9 3b 13 f7 98 bd 00 97 b8 bb
       -0.03860884 0.0056480793 -0.07469001 -0.005633235
000220 d4 fc 70 bd e9 69 ad bd 2c 55 7f bd 60 e7 46 3a
       -0.058834866 -0.084674664 -0.062337086 0.0007587578
000230 55 2e 92 bd c6 ae 38 bd 3d 4f 5b 3d 89 67 43 bc
       -0.071377434 -0.045088552 0.053542364 -0.01192654
000240 de 7f cd bc 83 87 17 bd 32 9c 72 bc a2 c0 71 3b
       -0.025085386 -0.03699447 -0.014807748 0.00368885
000250 68 98 8a bd 06 6f af bd 70 b5 9f bb 33 2c d4 3c
       -0.067673504 -0.08566098 -0.004873924 0.025899982
000260 cb b0 08 bc 9e e1 b7 bd dd 09 6e bc 35 8e b9 bd
       -0.008342932 -0.0897858 -0.014528719 -0.09060327
000270 ca 25 d9 bc 7e e2 c6 bd 79 59 ba bd ed 1d 21 bd
       -0.026507277 -0.09711169 -0.09099097 -0.03933518
000280 9b 9c fe 3c db ed 78 bc 4a 89 22 bd e4 19 df bc
       0.031080535 -0.015193428 -0.03968171 -0.027234025
000290 f3 b7 0e 3d 45 2d 60 bb fc 09 cf bd db 29 bb bd
       0.034843396 -0.003420667 -0.10109326 -0.09138843
0002a0 da 7d 36 bd ce 5c 20 bc 9a 05 7c 3b 05 05 c3 bd
       -0.044553615 -0.009787751 0.0038455487 -0.09522442
0002b0 52 90 47 bd ae c6 df 3c b2 7d 01 bd 37 f7 41 bb
       -0.04872162 0.027316418 -0.031614013 -0.0029596814
0002c0 64 69 9f bd b7 8f 8c bc 2d 15 f5 3c d1 34 f7 3a
       -0.077837735 -0.017158372 0.029917324 0.0018860345
0002d0 ee d7 02 3d fd bc 8d bd 88 56 0a bc 4a f8 91 bd
       0.031944208 -0.06920812 -0.008443482 -0.071274355
0002e0 a8 e4 fd bc 73 28 69 3d d2 c5 22 bc ce 63 12 bc
       -0.03099282 0.05692334 -0.009934859 -0.008934928
0002f0 c3 f6 d3 3c b3 1c 41 3d 5c f6 9a bc 1f 74 07 bd
       0.025874501 0.04714651 -0.018916301 -0.033069726
000300 46 dc 19 bd ff 00 9a bc 3b 12 b2 bc 01 2f b1 bd
       -0.037563585 -0.018799303 -0.021737209 -0.086515434
000310 af 03 01 bd 36 d6 d5 bc 60 4f 9d bd 06 64 54 bd
       -0.031497654 -0.02610312 -0.07681155 -0.051853202
000320 a8 85 c5 bd a3 5c e6 bc d1 d2 12 bd e4 36 f8 3b
       -0.096446335 -0.028120345 -0.03584558 0.007574903
000330 d2 25 73 bd 93 3b 6a bc c3 85 04 3d ef 21 a2 bc
       -0.05936224 -0.01429643 0.032354128 -0.019791571
000340 16 be b7 bd b3 89 a6 bc ac 43 91 bd 6b 7d 50 bb
       -0.08971803 -0.020329332 -0.070929855 -0.0031813036
000350 51 10 d9 bd f4 c9 1e bd 50 a6 7c bd 94 35 1a bd
       -0.10598815 -0.038766816 -0.061682045 -0.037648752
000360 10 93 4d ba 8d ff 60 bc 4a 35 c0 bd c1 a6 c5 3c
       -0.00078420434 -0.013732803 -0.09385164 0.024127366
000370 cf ca 34 bd 76 8d f4 bc d7 af 71 bd e6 2f dd bc
       -0.044138726 -0.02985261 -0.059005585 -0.027000379
000380 92 e5 c4 bd 35 8f 28 3d 99 31 35 3d 04 e3 be bc
       -0.096140996 0.041152198 0.044236753 -0.023301609
000390 c7 ad d8 3c 96 88 20 bd 09 cd 8b bd 13 e9 a2 bd
       0.026450051 -0.03919276 -0.06826217 -0.07954612
0003a0 af cd ba 3c 4c 72 c8 3c aa 54 66 bd 59 c9 c3 bd
       0.022803156 0.024468563 -0.056233086 -0.095598884
0003b0 9e b5 8f 3a 18 39 14 3c f0 9a f1 3c 9c 76 4b bd
       0.001096416 0.009046815 0.029492825 -0.04967366
0003c0 9d 63 1a bd 6d ac 26 bd 06 b0 78 bd 49 a1 9f bd
       -0.037692655 -0.04069178 -0.060714744 -0.077944346
0003d0 8e fe 38 3d d9 b8 86 bd 8b 67 30 ba 46 85 9f 3c
       0.045164637 -0.06578226 -0.00067292963 0.01947273
0003e0 b2 05 a2 bd 10 f5 4c bd a0 c7 e0 bc 4a 61 24 bc
       -0.079112425 -0.050038397 -0.027438939 -0.010032961
0003f0 ae 94 87 bd 6a b2 01 bd 80 80 06 bd df 39 bb 3c
       -0.06620155 -0.03166429 -0.03283739 0.022854744

fc2.weight f4 [1, 256]
000000 61 1b a9 3d ad 27 ed 3c e9 8c 09 3c e9 d1 7e 3b
       0.08257175 0.028949583 0.008395412 0.003888244
000010 37 09 53 3c bf fa 51 3d 00 23 6d 3d c0 73 8a 3c
       0.012880615 0.05126452 0.057894707 0.016900897
000020 79 71 22 3d 65 a1 ab 3c de c0 f0 3c b7 c3 0b 3d
       0.039658997 0.020950982 0.029388841 0.034122195
000030 15 44 87 3d 71 49 98 3d 20 be 96 3d 18 60 9f 3c
       0.066047825 0.07435883 0.07360482 0.019455
000040 3e 40 3b 3d 60 18 30 3d 23 67 64 3c 8a 6b 5f 3d
       0.045715563 0.042991996 0.013940605 0.054545917
000050 8e 54 68 bc ee 08 10 bb 96 c3 45 bc 39 43 fd 3c
       -0.014180316 -0.0021977979 -0.012070557 0.030915843
000060 2b 06 14 3d e2 8c b5 3a 93 b5 de 3c 3d e2 b3 3c
       0.036138695 0.001385119 0.02718619 0.021958465
000070 1e e5 55 3d b6 eb cc 3c 69 ea 96 3c 32 fa a2 3c
       0.052220456 0.02501474 0.018422322 0.019894693
000080 05 2a 19 3d 7b 12 d0 3c e6 b5 c3 39 08 53 00 3b
       0.03739359 0.025399437 0.00037328823 0.001958074
000090 66 00 26 3d bf 12 16 3c 89 7d 1d 3d 9e d1 47 3d
       0.040527724 0.009159743 0.038449798 0.04878389
0000a0 3a 60 3d 3d e9 43 5e 3d 1c 6b e2 3c f3 5e 8e 3d
       0.046234347 0.054263983 0.027638964 0.06951704
0000b0 8b 73 24 3d 8f 6e 05 3d f1 09 df 3c 1f 5d 81 3d
       0.040149253 0.03257614 0.02722642 0.063165896
0000c0 0e 24 7b bb c2 82 27 3d 63 9a 07 3d 97 90 1a 3d
       -0.003832105 0.040896185 0.03310622 0.037735548
0000d0 bc 58 41 3d eb 25 5d 3d 8a 16 11 ba 22 47 12 3d
       0.047203764 0.05399124 -0.00055346696 0.03571237
0000e0 3a b2 1e 3d 95 9b 8d ba 1e 80 68 3c 33 3e 52 3d
       0.03874419 -0.0010803813 0.014190702 0.05132885
0000f0 53 e1 00 3d 21 c0 9d 3c b9 56 3e ba 34 65 b7 bb
       0.031464886 0.019256653 -0.00072608475 -0.005596781
000100 04 50 9c 3d d8 3a e7 bb db 5f 0b 3d e3 23 4e 3b
       0.07632449 -0.0070565753 0.03402696 0.0031454496
000110 34 d3 2f 3d 99 f1 ba 3c 4f 3b 45 3d 7e 06 c2 3c
       0.04292603 0.02282028 0.048152264 0.023684736
000120 18 5d 0e 3d 2b af 0d 3d c1 1b be bb 59 ff d3 3b
       0.03475675 0.03459088 -0.0058016484 0.006469649
000130 bf 83 c8 3c fa dc 81 3c 3c b9 00 3d 51 b5 d2 3c
       0.024476884 0.01585244 0.031426653 0.025721224
000140 ac 0e d2 3c 60 a9 54 3d b5 7f 02 3d 50 8d 5a 3d
       0.025641762 0.05191934 0.031860072 0.053357422
000150 2e 0c e4 3b 88 ac 72 3c f4 cd 24 bc 58 cc 5d 3d
       0.0069594597 0.0148116425 -0.010058869 0.054149956
000160 c7 9e 0f 3d 51 57 b2 3d 32 48 30 3d 9e fa 8a 3d
       0.03506353 0.087080605 0.0430376 0.06786083
000170 ce 55 7b 3c 3a b4 39 3c 73 d7 1b 3d 93 9b a3 ba
       0.015340282 0.011334473 0.038047265 -0.0012482278
000180 f8 36 61 3d f2 b4 c2 3c 5a cf c3 3c 51 b0 7b bc
       0.054984063 0.023767922 0.023902584 -0.015361861
000190 c1 aa 99 3d db 49 a8 3c e5 49 c2 3b f1 fc 2d 3d
       0.07503272 0.02054303 0.005929219 0.04247755
0001a0 45 8f 3b 3d 3b 0b 44 3d c7 06 59 bc 68 8b 79 3c
       0.04579093 0.047862273 -0.013246245 0.015230991
0001b0 40 e7 bb 3c 4b 46 7d 3c 2d 26 3c 3c 28 fd cd 3c
       0.022937417 0.015458654 0.011483711 0.025145128
0001c0 5d 68 9e 3b c5 8b 5d 3d 7c b1 c1 3c d2 cc 3f 3d
       0.0048342184 0.054088373 0.023644201 0.04682619
0001d0 cc b7 20 3d 5c 2c 48 3c ec ce 0b 3b be b9 3e 3c
       0.039237782 0.012217607 0.0021333052 0.011640964
0001e0 7e c6 f3 3c 36 3a 46 3d 45 6c b7 3c a4 04 9d 3c
       0.029757734 0.048395358 0.022390494 0.019167252
0001f0 0e 5a 45 bc 4b 01 a5 3c f8 2f 4c 3d 42 cf 21 3c
       -0.0120453965 0.020142218 0.049850434 0.009876074
000200 6c 7f 0e 3d 73 31 16 3d b9 cd 15 3d 23 6f cd 3c
       0.034789488 0.036668252 0.036573146 0.025077408
000210 12 56 31 3d 3b 2f 34 3d 4e 17 48 3d ca 54 bf 3c
       0.043294974 0.043990355 0.04885035 0.02335586
000220 f6 fa 33 3d 31 54 72 3c b0 6c 07 3c 58 72 0a 3d
       0.043940507 0.014790581 0.008265659 0.033800453
000230 91 8e 58 bc 34 de 4f 3c 5a 9b 74 3d ab 10 27 3d
       -0.013217584 0.012687255 0.059718467 0.04078738
000240 bf 79 fc 3c 81 af a6 bb d5 c5 90 3c 05 a3 e2 3b
       0.030819772 -0.0050868397 0.017672459 0.006916406
000250 8f 09 d0 3c 2e 5d 11 3d f5 29 cb 3c a5 ee 73 3d
       0.025395183 0.035489254 0.02480028 0.05955376
000260 ef 0b 7e 3d b2 a9 f5 3c 33 c0 0f 3d be 2d 7c 3c
       0.0620231 0.029988144 0.035095405 0.015391765
000270 43 5a 92 3c 7b 7b ad 3c 6f 65 19 3d fc fb 7a 3c
       0.017865306 0.021177044 0.03745025 0.015318867
000280 30 7c 0c 3d 88 d2 83 3d 0f 44 2d 3d 8c 89 45 bc
       0.034298122 0.0643664 0.042301234 -0.0120567195
000290 5d e1 67 3d 0d 9c 1d 3d b2 83 2a 3d 2a b1 d4 3c
       0.056611408 0.0384789 0.0416295 0.025963385
0002a0 5f f9 f0 3c 89 ce 1d 3d 4d b9 37 3d 00 4a 28 3d
       0.029415784 0.038527045 0.04485445 0.041086197
0002b0 82 a5 d5 3c 2e a9 d8 3c 53 ca 77 3d c9 b5 11 3d
       0.026079897 0.026447859 0.060495686 0.035573754
0002c0 e7 70 ff 3c 65 16 3f bb f3 90 79 3d 48 be ac 3c
       0.031181766 -0.0029157635 0.06092925 0.021086827
0002d0 34 2b 22 3d e7 a2 53 3b 03 65 06 3b e1 9e c3 3c
       0.039591983 0.0032293142 0.0020506985 0.02387947
0002e0 69 c6 c6 3c 0a dc 5e 3d 14 69 92 3c 7e 8d a4 3c
       0.024264531 0.054409064 0.01787237 0.020087
0002f0 34 01 8f 3d 9e ec 36 3d 6a 94 ef 3c 5c 86 bf 3b
       0.06982651 0.04465925 0.029245574 0.0058448743
000300 fd 92 e9 3c 7f 52 3c 3c 5f 4b 2c 3d 54 df 06 3d
       0.028512472 0.011494278 0.042064067 0.032927826
000310 62 7f 08 bc 96 c3 c1 3d d3 c0 44 3d e5 9b 56 3c
       -0.008331152 0.09461133 0.048035454 0.013098692
000320 ae b5 d0 bb 6c 74 91 3c 83 3d 55 3d fe 2f 69 3c
       -0.006369314 0.01775571 0.052060615 0.014232634
000330 8c d2 e0 ba da 8f 5a 3d 60 1d 21 3c fd 64 4f 3d
       -0.0017152592 0.053359844 0.009833664 0.05063342
000340 27 ef 8f 3c ac 0c 45 3d 0e 8a 1b 3c cd f7 fd 3c
       0.017570091 0.048107788 0.009493364 0.03100195
000350 60 ba 07 3d 6b 95 56 3c e1 6d 55 3b 7b f8 ab 3b
       0.033136725 0.013097147 0.0032566714 0.005248127
000360 ab 26 6a 3d 1e b0 39 bc e5 ed a3 bb 96 18 af 3c
       0.057165783 -0.0113334935 -0.0050027245 0.021374028
000370 08 6c 47 3b d6 d9 98 bc 79 17 25 bc d2 64 1e 3b
       0.0030429382 -0.01865856 -0.010076397 0.002416898
000380 18 0d dc 3c 4e 86 d8 3c d1 e9 94 3d 92 e8 9e 3b
       0.026861712 0.026431229 0.072711594 0.004849502
000390 fc f9 2c 3d d3 b5 38 3c 5c cc c3 3c db 53 0e bb
       0.04223059 0.011273819 0.023901157 -0.0021717462
0003a0 f8 54 a4 3c 95 4b 98 3d ea 73 37 3d 09 e9 08 bc
       0.020060048 0.07436291 0.04478828 -0.008356341
0003b0 64 45 52 3d 47 fa 18 3d 00 6c 16 3d 73 31 16 3d
       0.051335707 0.037348058 0.03672409 0.036668252
0003c0 c9 8b 02 3d cd 8a dd 3c 0d e0 c6 bb 58 d2 f9 3a
       0.03187159 0.027043724 -0.0060691894 0.001905988
0003d0 61 be 87 3d 0e 1c e0 bb 42 17 4d 3d 06 9a ee 3c
       0.06628109 -0.006839282 0.05007101 0.029126178
0003e0 1b d6 1b 3d b0 64 6f 3c 1c 00 1d 3d b3 36 7c 3d
       0.038045984 0.014611408 0.038330182 0.061575603
0003f0 82 74 23 bb 25 7a 3c 3d 0b bc ae 3c 01 c2 7f 3d
       -0.002494127 0.046014924 0.0213299 0.062440876
